model/model.pth (torch, 273743 bytes, 8 tensors)

linear1.weight f4 [128, 11]
0.20941749 -0.18587378 -0.029499829 -0.03898958 -0.025347244 -0.235702 -0.046089403 -0.06817491
0.1886205 -0.20243406 -0.1712614 0.24202974 0.3006375 -0.21665534 0.20470724 -0.078029215
0.22794655 -0.00028642846 0.15684219 0.21219507 0.13428631 0.23308465 0.019911423 0.20219654
0.15767723 0.27329218 -0.15511014 -0.28008646 0.28170246 -0.27291146 0.09557712 -0.12685823
-0.200337 -0.07626423 0.28332394 0.04197663 -0.22514921 -0.23329902 -0.14733915 0.019796576
-0.090199664 -0.06580035 -0.076908596 0.05326125 0.061370622 -0.095094875 -0.1101608 0.28114107
-0.16187918 0.26540706 -0.1364381 0.2292188 -0.11127887 -0.1865249 -0.027814547 -0.08841364
0.03655189 -0.2585725 -0.10930052 -0.15338981 0.16405629 -0.1568081 0.30167544 -0.19656645
0.037891738 -0.056530345 0.0047465563 -0.28343868 0.024151968 0.09318804 -0.11870277 -0.211819
-0.123436786 0.09374768 0.17387895 0.26745287 0.15074313 0.03338159 -0.031273246 -0.16800535
-0.10345319 -0.17726737 -0.11059639 -0.16961451 0.13652045 0.0029888244 -0.17843056 0.24287125
-0.095472164 -0.027765226 0.034205046 0.22785847 0.18735221 -0.10071908 -0.11840996 -0.08014022
0.0801652 0.25009227 0.22270241 -0.11672926 0.15676257 0.28549904 0.19958802 -0.23717187
0.19282009 -0.1547594 -0.06169295 0.20111248 0.17083842 0.2872054 -0.17284265 -0.2882719
0.12241351 0.1442495 0.05566888 0.25132236 0.0786107 0.20545311 -0.03858328 -0.015774444
-0.26587042 -0.13868716 0.16440621 -0.21321064 0.17599072 0.2184542 0.05952987 -0.20063622
-0.19752811 0.05132292 -0.28102458 0.19549178 0.20600027 -0.20349577 -0.21621045 0.10622318
-0.20704511 -0.14363599 -0.15814698 -0.010150862 -0.28256252 0.24855056 0.26159385 0.30161655
-0.0764455 -0.2426038 0.029521633 -0.18220262 0.014520461 0.015123901 -0.2299478 0.2913001
-0.07753878 -0.23406163 0.027269304 -0.22327629 -0.121511295 -0.06953631 -0.15055504 0.043671843
-0.06912118 -0.020422578 0.29834586 -0.120146096 -0.19665647 -0.10793854 -0.13126665 -0.20896119
0.25165194 0.028630644 -0.09174195 -0.17574786 0.02252385 0.061393596 0.033346754 -0.09136123
-0.033851467 -0.17244205 0.01948785 -0.13521212 0.16786161 -0.27454448 0.23316272 -0.07058914
-0.10668496 0.17697825 -0.013101611 0.00355879 0.0938075 0.11552924 -0.12159238 0.24737854
0.28378236 -0.031399414 -0.211182 -0.047328956 0.29211104 0.07217966 -0.23668738 0.2832498
0.0065807416 -0.29076105 0.26383618 -0.08567664 0.17928728 -0.0673021 0.24554794 -0.21582283
0.0424152 -0.0124200415 0.24945885 -0.30142203 -0.2258101 0.045773055 -0.044099033 0.10319994
0.13826095 -0.028822526 0.045675043 -0.18795674 -0.048662823 -0.23166746 0.16686773 0.26623827
0.26268414 0.021387031 -0.12709004 -0.2789983 0.27258658 0.17033686 0.1707328 0.07139206
0.0814705 0.034409046 0.27188447 0.23161086 -0.14768082 0.19469588 -0.29312414 0.2950853
-0.22305577 0.07114448 0.22788899 -0.077764675 0.15827544 -0.25948378 0.20234808 -0.2966564
0.1460016 0.18578792 0.12705392 -0.021816725 0.1433233 -0.06548264 0.22456332 -0.28938857
00000000: 8a71 563e b255 3ebe a0a9 f1bc 8ab3 1fbd
00000010: 06a5 cfbc dd5b 71be 3ec8 3cbd 4a9f 8bbd
00000020: bb25 413e e04a 4fbe 265f 2fbe a5d6 773e
00000030: 29ed 993e e6da 5dbe c69e 513e c8cd 9fbd
00000040: d26a 693e c72b 96b9 3d9b 203e aa49 593e
00000050: 5a82 093e bead 6e3e 481d a33c 9c0c 4f3e
00000060: 2476 213e f4ec 8b3e 31d5 1ebe 7e67 8fbe
00000070: 4e3b 903e 0dbb 8bbe f0bd c33d 20e7 01be
00000080: 2425 4dbe 6c30 9cbd d60f 913e b0ef 2b3d
00000090: 848d 66be f0e5 6ebe 13e0 16be 6e2c a23c
000000a0: 9aba b8bd 55c2 86bd 4182 9dbd 7828 5a3d
000000b0: c35f 7b3d 1ac1 c2bd fc9b e1bd b9f1 8f3e
000000c0: a8c3 25be 6fe3 873e 6eb6 0bbe 55b8 6a3e
000000d0: 2de6 e3bd 6200 3fbe 55db e3bc 3612 b5bd
000000e0: 6fb7 153d 9d63 84be f3d8 dfbd 3812 1dbe
000000f0: 5ffe 273e 4d92 20be 3475 9a3e b748 49be
00000100: 5e34 1b3d 5d8c 67bd 0089 9b3b e01e 91be
00000110: 59da c53c 5fd9 be3d 701a f3bd 14e7 58be
00000120: 6dcc fcbd c9fe bf3d 530d 323e 95ef 883e
00000130: 685c 1a3e 22bb 083d 6018 00bd 9809 2cbe
00000140: 44df d3bd 9485 35be 5c80 e2bd 6daf 2dbe
00000150: 04cc 0b3e 27e0 433b 80b6 36be 3eb3 783e
00000160: e986 c3bd e673 e3bc 971a 0c3d bb53 693e
00000170: 42d9 3f3e ce45 cebd ec80 f2bd 8e20 a4bd
00000180: a72d a43d 180c 803e 1a0c 643e c00f efbd
00000190: 5e86 203e ee2c 923e cd60 4c3e 2fdd 72be
000001a0: a172 453e 4079 1ebe bfb1 7cbd 6ef0 4d3e
000001b0: 44f0 2e3e 960c 933e aafd 30be 6098 93be
000001c0: efb3 fa3d 24b6 133e 0d05 643d 53ad 803e
000001d0: a6fe a03d 4d62 523e 8009 1ebd 6839 81bc
000001e0: 2b20 88be 0204 0ebe 1a5a 283e e453 5abe
000001f0: e936 343e 75b2 5f3e 98d5 733d 9573 4dbe
00000200: cf44 4abe fb37 523d 74e2 8fbe ff2e 483e
00000210: bcf1 523e 3261 50be 4666 5dbe 8a8b d93d
00000220: a203 54be 5015 13be 48f1 21be cd4f 26bc
00000230: 09ac 90be 0a84 7e3e a1ef 853e 7c6d 9a3e
00000240: 758f 9cbd 216d 78be 5ad7 f13c 5393 3abe
00000250: 3ae7 6d3c 3dca 773c 7077 6bbe 4925 953e
00000260: a7cc 9ebd daad 6fbe e063 df3c 8aa2 64be
00000270: eada f8bd 0e69 8ebd 1a2b 1abe 3fe1 323d
00000280: 688f 8dbd 404d a7bc cac0 983e 280f f6bd
00000290: 5060 49be e20e ddbd c46a 06be ecf9 55be
000002a0: 86d8 803e d08a ea3c 34e3 bbbd 3ff7 33be
000002b0: f083 b83c da77 7b3d 9b96 083d 991b bbbd
000002c0: d6a7 0abd a694 30be fca4 9f3c 0c75 0abe
000002d0: eae3 2b3e 1891 8cbe 35c2 6e3e 0a91 90bd
000002e0: a57d dabd c939 353e 24a8 56bc 973a 693b
000002f0: 261e c03d 989a ec3d 6d05 f9bd cd50 7d3e
00000300: ec4b 913e ac9c 00bd 1840 58be 02dc 41bd
00000310: 948f 953e eed2 933d 2d5e 72be 1e06 913e
00000320: 43a3 d73b a2de 94be 8915 873e 3c77 afbd
00000330: 1697 373e afd5 89bd eb70 7b3e a900 5dbe
00000340: 90bb 2d3d 6e7d 4bbc 2472 7f3e fd53 9abe
00000350: c33a 67be 877c 3b3d 30a1 34bd 7d5a d33d
00000360: 4794 0d3e 381d ecbc c115 3b3d bb77 40be
00000370: ab52 47bd 3c3a 6dbe 60df 2a3e 6250 883e
00000380: 897e 863e db33 af3c e423 02be ddd8 8ebe
00000390: 7890 8b3e c96c 2e3e 94d4 2e3e 0036 923d
000003a0: 01da a63d 80f0 0c3d 7134 8b3e 662b 6d3e
000003b0: a439 17be 5b5e 473e 5e14 96be 6c15 973e
000003c0: bb68 64be 32b4 913d bb5b 693e 1643 9fbd
000003d0: f512 223e 0fdb 84be 5634 4f3e 59e3 97be
000003e0: 7281 153e 303f 3e3e 6c1a 023e fdb8 b2bc
000003f0: 58c3 123e c31b 86bd edf3 653e bd2a 94be

linear1.bias f4 [128]
0.06149172 -0.17343353 -0.00857925 -0.09389096 0.022507006 0.26196796 -0.09355475 0.08234913
-0.13631706 0.15339331 0.27229485 -0.09872878 0.046486747 -0.0099770725 -0.13810372 -0.17570248
0.07905792 -0.15553886 0.107216865 -0.06608578 0.17095211 -0.2860237 0.24541774 0.060857825
0.14199466 -0.13194418 0.13496235 -0.29461145 -0.0816865 0.03323422 -0.2755434 -0.019422006
0.07630997 0.19334693 -0.29960674 -0.28830847 0.022494907 -0.11888548 0.06614429 -0.031291194
0.13110761 0.25249025 0.28894052 0.098825835 -0.25543907 0.2702534 -0.17010823 0.16671756
-0.17888774 -0.07710348 -0.16611104 0.07961329 -0.043360755 -0.041770067 0.01380606 0.12138419
-0.12974414 0.13002357 -0.16183971 -0.13109833 0.07750198 -0.12983532 0.026011234 0.103188366
0.19262785 0.2848844 0.1016245 0.25598606 0.1532998 -0.016965095 0.022859992 -0.28457007
0.13003813 -0.18556781 0.29935384 -0.068221174 -0.2742022 0.09161117 0.10799188 0.047212027
-0.118527986 -0.27866575 0.025731774 -0.036321722 -0.06668355 0.06546786 0.23478459 -0.13792369
0.28865123 0.25972223 -0.27839267 0.24981235 -0.2760661 -0.03093603 0.20877706 -0.17436236
-0.21102002 0.035973474 0.14409348 -0.21904004 -0.03761059 -0.27592015 -0.11269553 0.14613165
-0.091550305 0.2897753 0.13391703 0.0841646 0.04588251 -0.18488923 0.22076724 0.18985075
0.16348311 0.132843 0.25187975 -0.11907955 -0.048331328 -0.21031958 -0.22110176 0.18756711
-0.23830612 -0.25893974 -0.14473806 -0.25216693 0.017689703 -0.03820597 0.13043033 -0.15873848
00000000: bede 7b3d 8f98 31be fc8f 0cbc e749 c0bd
00000010: 9d60 b83c aa20 863e a299 bfbd a9a6 a83d
00000020: b396 0bbe 2313 1d3e 3b6a 8b3e 5132 cabd
00000030: e368 3e3d e076 23bc 106b 0dbe 5aeb 33be
00000040: 1ee9 a13d 9445 1fbe 8494 db3d fb57 87bd
00000050: 120e 2f3e b371 92be ca4e 7b3e 0e46 793d
00000060: 0c67 113e 601c 07be 9233 0a3e 50d7 96be
00000070: 404b a7bd 9b20 083d 0614 8dbe e61a 9fbc
00000080: 6748 9c3d bdfc 453e 0e66 99be 2b9d 93be
00000090: 3d47 b83c 3b7a f3bd a876 873d 322b 00bd
000000a0: 1341 063e 6746 813e 03f0 933e 3365 ca3d
000000b0: e9c8 82be a75e 8a3e da30 2ebe 02b8 2a3e
000000c0: 592e 37be 6ee8 9dbd 0319 2abe 4b0c a33d
000000d0: 0c9b 31bd 1717 2bbd d032 623c 4698 f83d
000000e0: a6db 04be e624 053e 4fb9 25be a43e 06be
000000f0: 5cb9 9e3d 8df3 04be 8315 d53c 6c54 d33d
00000100: 3c40 453e 5edc 913e 8120 d03d 9b10 833e
00000110: 9ffa 1c3e 62fa 8abc e144 bb3c 2bb3 91be
00000120: b728 053e 7d05 3ebe e844 993e 8bb7 8bbd
00000130: 3b64 8cbe a39e bb3d d92a dd3d 6661 413d
00000140: cdbe f2bd 47ad 8ebe 71cb d23c 16c6 14bd
00000150: 6391 88bd 0314 863d 5f6b 703e de3b 0dbe
00000160: 18ca 933e 50fa 843e 7c89 8ebe cfce 7f3e
00000170: 8958 8dbe 8f6d fdbc a7c9 553e 0c8c 32be
00000180: a215 58be ec58 133d 3e8d 133e 084c 60be
00000190: 900d 1abd 6845 8dbe eacc e6bd 89a3 153e
000001a0: ba7e bbbd 6e5d 943e 8c21 093e 7d5e ac3d
000001b0: 4cef 3b3d 9a53 3dbe cf10 623e 3c68 423e
000001c0: 1e68 273e ff07 083e 62f6 803e fbdf f3bd
000001d0: 12f7 45bd 045e 57be 8068 62be 9811 403e
000001e0: 8506 74be c093 84be 3736 14be 061c 81be
000001f0: ffe9 903c dd7d 1cbd 878f 053e 578c 22be

linear2.weight f4 [256, 128]
-0.046263024 -0.066709474 0.018742481 0.068895034 -0.061602447 -0.029969316 0.022431873 0.071214356
-0.03741825 0.0553213 0.054029953 0.042958513 0.054389324 0.013775378 0.027212672 -0.0018372759
-0.03694741 0.08575107 -0.020807177 -0.07235755 -0.016056143 -0.050944783 0.0047864006 0.00061836035
-0.08988644 -0.078635655 0.06354355 0.069024704 0.057092164 -0.05193479 0.043798365 -0.07620994
-0.013157569 -0.031444363 -0.053105216 -0.032487106 -0.050717186 -0.0063304952 0.027153729 0.009704404
-0.062047035 0.040756192 -0.074158214 -0.074104995 0.014971495 -0.051024243 0.03629388 0.08617747
-0.020115016 -0.07314917 -0.06656242 -0.0031283246 -0.032649685 -0.0025581385 -0.064459145 -0.029191608
0.07671194 0.023169113 -0.04737569 -0.07289173 -0.020153085 0.07231357 -0.07107452 -0.029856447
-0.070153445 -0.044643547 0.038488306 0.031988483 0.004166437 -0.038620867 0.0097490605 0.014877034
0.02473083 -0.033356056 0.044793006 -0.014657386 -0.035844166 0.066244476 -0.053557947 -0.013663633
0.013319868 -0.036159392 -0.07407297 0.06130331 0.025693417 0.006197281 0.08479934 0.031106807
0.048739314 -0.033143107 -0.0664744 -0.08608931 -0.015570499 0.0434636 0.055080716 0.07358249
0.034534834 0.06580935 -0.05784245 0.038492646 -0.061664138 -0.022681579 -0.027215678 0.028548645
-0.03664558 -0.027350387 -0.00083797955 0.063505 -0.07478771 0.0077012703 0.024166146 0.05741795
0.052534424 0.045842502 -0.031905107 0.028185606 0.034335878 -0.007200653 -0.030809727 -0.04443126
0.06419162 0.08353121 0.0005895549 0.08033083 -0.00509772 -0.030160004 -0.071130626 0.0007438918
-0.07964755 -0.08620277 0.05932257 0.04186246 -0.06731642 0.06386043 -0.07404293 0.060442172
0.029353358 0.049119014 0.060814977 0.032520138 0.07962429 0.017025428 0.027786616 -0.044454236
0.06059379 -0.05551758 0.06083354 0.008340052 -0.03287772 0.06325743 -0.045785375 0.03642108
-0.051316284 0.07326475 -0.054067682 0.0049723573 -0.07422036 -0.08805919 0.023914035 -0.07151264
0.02372181 0.07914368 -0.008730903 -0.0061193127 0.077962555 -0.032293074 -0.03289683 -0.07475569
0.086660355 0.008884626 0.018464126 -0.06373266 -0.064018436 0.003983958 -0.010704275 0.07488113
0.08046051 0.036584876 -0.03499557 0.044695638 -0.031050598 0.046390053 -0.043171894 0.010563663
-0.04439179 -0.011419407 0.029496484 0.005874783 0.0045755496 0.041205995 -0.007706646 0.07933833
-0.072563976 0.048657577 0.028726472 0.075476706 -0.026078237 0.07115468 -0.08682168 0.04611998
0.047663167 0.04350995 -0.07509749 0.08801103 0.08552782 0.044309117 0.03664549 0.083176576
0.060524784 -0.013003907 0.008328771 -0.024889328 -0.045431312 -0.02542446 -0.08363761 0.08476963
-0.05514042 0.0079470035 0.017780494 0.032682132 -0.047699675 0.05624283 0.08325358 -0.056021117
-0.04558136 0.07018345 -0.06504322 0.018060628 0.07965912 -0.025027744 -0.046371687 0.027789224
0.03698266 0.0595868 -0.02657038 0.081330396 -0.05859406 -0.0024039971 -0.026732491 -0.07943095
0.068806715 0.022510055 0.052372936 0.027270366 -0.006031025 0.035866022 0.02730118 0.066558406
-0.08048985 -0.05072172 0.08362933 -0.036417138 -0.0002070483 -0.06235793 -0.05829004 0.07273475
00000000: 4c7e 3dbd fa9e 88bd d589 993c d718 8d3d
00000010: d952 7cbd 3682 f5bc 0cc3 b73c d5d8 913d
00000020: e143 19bd 9698 623d 834e 5d3d 44f5 2f3d
00000030: 57c7 5e3d 20b2 613c 1ced de3c c0d0 f0ba
00000040: 2b56 17bd 429e af3d d073 aabc 3230 94bd
00000050: 2c88 83bc 7aab 50bd 3dd7 9c3b 7619 223a
00000060: 6216 b8bd bb0b a1bd 1f23 823d d35c 8d3d
00000070: 79d9 693d 93b9 54bd ea65 333d f513 9cbd
00000080: d892 57bc cecb 00bd db84 59bd 3311 05bd
00000090: d3bc 4fbd 0b70 cfbb 7f71 de3c 38ff 1e3c
000000a0: 0825 7ebd f7ef 263d 43e0 97bd 5cc4 97bd
000000b0: 004b 753c ccfe 50bd e4a8 143d d07d b03d
000000c0: 3fc8 a4bc 3bcf 95bd e151 88bd 9404 4dbb
000000d0: adbb 05bd 71a6 27bb 2803 84bd 3d23 efbc
000000e0: 261b 9d3d 27cd bd3c 030d 42bd 4248 95bd
000000f0: 1518 a5bc 2319 943d 858f 91bd 8295 f4bc
00000100: 9cac 8fbd 27dc 36bd eaa5 1d3d 5b06 033d
00000110: 9b86 883b ea30 1ebd 86ba 1f3c cebe 733c
00000120: 4f98 ca3c 5ca0 08bd df78 373d 8825 70bc
00000130: 55d1 12bd 2fab 873d 945f 5bbd 6edd 5fbc
00000140: 933b 5a3c df1b 14bd 92b3 97bd 2e19 7b3d
00000150: 007b d23c 9012 cb3b 47ab ad3d b4d3 fe3c
00000160: e0a2 473d 11c1 07bd bb23 88bd 984f b0bd
00000170: 681b 7fbc e306 323d 519c 613d 6bb2 963d
00000180: 6674 0d3d 0dc7 863d 34ec 6cbd 77aa 1d3d
00000190: 8993 7cbd b8ce b9bc 6af3 debc d9de e93c
000001a0: ad19 16bd eb0d e0bc dbab 5bba e90e 823d
000001b0: 4d2a 99bd f05a fc3b 15f8 c53c 162f 6b3d
000001c0: 562e 573d 59c5 3b3d eeae 02bd 80e5 e63c
000001d0: c7a3 0c3d 75f3 ebbb ae64 fcbc 8efd 35bd
000001e0: e576 833d 6912 ab3d 5c8c 1a3a 7d84 a43d
000001f0: c60a a7bb 1d12 f7bc efac 91bd bc01 433a
00000200: 411e a3bd 148b b0bd 39fc 723d f977 2b3d
00000210: 31dd 89bd 42c9 823d d2a3 97bd 3692 773d
00000220: 7476 f03c 0531 493d 2019 793d d633 053d
00000230: 0f12 a33d e978 8b3c c2a0 e33c a515 36bd
00000240: 3231 783d 6766 63bd 972c 793d b7a4 083c
00000250: caaa 06bd 1d8d 813d 7289 3bbd 452e 153d
00000260: 0631 52bd d40b 963d 1376 5dbd 28ef a23b
00000270: d800 98bd 6058 b4bd 5ee7 c33c 3875 92bd
00000280: 3e54 c23c 1516 a23d 100c 0fbc 8484 c8bb
00000290: d5aa 9f3d be45 04bd d4be 06bd 8319 99bd
000002a0: fc7a b13d d390 113c 1442 973c 4586 82bd
000002b0: 191c 83bd dd8b 823b fc60 2fbc 475b 993d
000002c0: 7bc8 a43d 06da 153d 8457 0fbd c612 373d
000002d0: d35d febc 7f03 3e3d 03d5 30bd 3713 2d3c
000002e0: 2ad4 35bd 7718 3bbc 9ca2 f13c 4081 c03b
000002f0: 7eee 953b 9ec7 283d 0888 fcbb 227c a23d
00000300: 6c9c 94bd 2b4d 473d c753 eb3c 8893 9a3d
00000310: 07a2 d5bc 8bb9 913d 91cf b1bd 4ee8 3c3d
00000320: 743a 433d 7d37 323d b6cc 99bd 203f b43d
00000330: 3629 af3d 7a7d 353d 9519 163d 7b58 aa3d
00000340: d6e8 773d 570e 55bc 6675 083c b4e4 cbbc
00000350: 2f16 3abd f546 d0bc 324a abbd b39b ad3d
00000360: ecda 61bd 2634 023c 66a8 913c b3dd 053d
00000370: bc60 43bd e25e 663d da80 aa3d 6676 65bd
00000380: 85b3 3abd 57bc 8f3d 6135 85bd e2f3 933c
00000390: 5224 a33d fc06 cdbc 3df0 3dbd 3aa6 e33c
000003a0: 217b 173d 4a11 743d 20aa d9bc 8d90 a63d
000003b0: 5300 70bd 618c 1dbb 19fe dabc b2ac a2bd
000003c0: 89ea 8c3d 0267 b83c 0185 563d 1a66 df3c
000003d0: e89f c5bb 40e8 123d b9a6 df3c c64f 883d
000003e0: ddd7 a4bd 94c1 4fbd db45 ab3d 232a 15bd
000003f0: 1b1b 59b9 076b 7fbd 89c1 6ebd f5f5 943d

linear2.bias f4 [256]
-0.08219901 -0.07846318 0.040166024 0.00265748 -0.0814643 0.050124027 0.022501623 0.01587005
-0.016158681 0.017366545 0.07241203 0.004259718 0.082654804 -0.06595263 0.07481569 0.06492371
0.0147917345 0.06074303 0.047718782 0.0024830904 0.055530313 0.01709821 -0.0023839828 -0.049320675
0.051851258 0.07229958 -0.060392536 0.04501601 -0.012954717 0.06148305 -0.059522912 0.04362952
-0.0037181834 0.001965636 0.088590786 0.042095702 0.083242804 0.023354359 0.049115404 -0.08174199
-0.030102605 0.048492774 -0.061848216 0.08063378 0.029850414 -0.07088319 0.060905028 0.05061573
0.0026917406 0.005689852 -0.019219946 0.010086319 0.042407114 -0.02391607 -0.08464672 0.014630382
0.04799627 0.046784125 0.028781824 0.081617065 0.07456687 -0.008488262 0.018270012 0.015944757
-0.045741647 -0.017243855 -0.03316849 0.08682413 0.058103733 -0.05591074 -0.03054148 -0.049915556
-0.07605852 0.026298827 0.038602196 0.016330479 0.03202185 -0.012085086 0.029180218 0.03967848
-0.072799385 0.007365427 0.022317696 0.031476192 0.030335749 0.00528549 -0.08642626 -0.022258947
-0.01892142 -0.071352586 -0.033074465 -0.0450208 -0.046136107 -0.01234808 -0.03346921 0.02566237
-0.00054885575 0.06751762 -0.034799386 -0.01457482 0.03201471 -0.026493222 -0.08516986 0.080307834
-0.055411916 -0.0240937 0.01668611 0.005004918 0.08851932 -0.0009083592 -0.036896635 0.070255235
-0.08024595 0.009698487 0.07565346 -0.026954599 0.052145287 0.062435705 -0.06012857 -0.03312
-0.02825619 0.009750569 0.064113356 -0.023809118 -0.030487116 0.0035737006 -0.005190265 0.0540857
-0.036999475 0.04289567 0.0065260176 -0.031024016 -0.070712075 -0.07964017 -0.041523244 -0.08355794
-0.066183634 0.038954716 0.05840736 -0.0692602 -0.08351852 -0.03990006 0.082049064 0.060421728
0.052167613 0.084717035 -0.07225859 0.028339364 -0.008149863 -0.050215144 -0.009970203 -0.036389664
0.08662322 0.03408757 -0.033761427 0.022757798 0.01621366 -0.07421306 -0.06933297 -0.04166033
-0.017827848 0.028158491 0.0110246735 -0.06187421 0.06814173 -0.013888337 0.07697868 0.012411006
-0.061609015 -0.0064927307 0.0035926895 0.05546624 0.08733148 -0.07248894 0.054763388 -0.02421063
0.033270642 -0.07496176 0.08486881 -0.02913087 -0.040147524 -0.0015958209 -0.03508707 0.04491865
0.005894318 0.05092721 0.069828905 -0.08619548 0.0059490856 0.06839064 0.043953143 -0.04135984
0.08543986 -0.044781797 0.07174799 0.03640875 0.04999887 -0.062191363 -0.07503799 0.03433539
-0.07386377 -0.017199405 -0.040192783 0.06295707 0.007322119 0.04012335 0.04924257 0.04471232
-0.04358622 0.018646568 0.026869792 -0.086226285 -0.016894631 0.07833178 0.043973316 -0.004443646
0.010965811 -0.028535787 0.01080772 0.028271353 -0.012519471 0.0032117574 0.06463058 -0.008352949
-0.015053375 0.028899746 -0.086647645 -0.009498065 -0.023168454 0.06058364 -0.0049510715 0.050290212
0.028962933 -0.012817584 -0.08817478 -0.03762511 0.030761056 0.035290908 -0.069181845 0.055896048
0.067378245 0.046315555 0.035456415 0.04628111 -0.019487819 0.05649976 -0.08359006 0.07040298
-0.034661118 -0.07112868 0.022408321 0.038305633 -0.046405468 -0.036544405 0.069194004 -0.03387689
00000000: f457 a8bd 4eb1 a0bd 2185 243d 1e29 2e3b
00000010: c1d6 a6bd da4e 4d3d 5355 b83c e801 823c
00000020: 365f 84bc 4944 8e3c c24c 943d 1b95 8b3b
00000030: ec46 a93d 2c12 87bd f838 993d b9f6 843d
00000040: 0859 723c afcd 783d c574 433d 58bb 223b
00000050: c173 633d 8c11 8c3c 983c 1cbb 7a04 4abd
00000060: fc61 543d cd11 943d 2a5e 77bd b562 383d
00000070: 0540 54bc a7d5 7b3d 4cce 73bd deb4 323d
00000080: c4ac 73bb e6d1 003b 166f b53d 8b6c 2c3d
00000090: 347b aa3d a451 bf3c 3c2d 493d 5868 a7bd
000000a0: bd99 f6bc 5ca0 463d 8e54 7dbd 5323 a53d
000000b0: db88 f43c 352b 91bd 8d77 793d 7152 4f3d
000000c0: ea67 303b f071 ba3b 2673 9dbc 1741 253c
000000d0: 15b3 2d3d a2eb c3bc 425b adbd 45b4 6f3c
000000e0: bd97 443d b6a0 3f3d dcc7 eb3c d926 a73d
000000f0: 84b6 983d 5a12 0bbc feaa 953c 949e 823c
00000100: 985b 3bbd fc42 8dbc afdb 07bd d9d0 b13d
00000110: 2efe 6d3d a902 65bd 2032 fabc 4174 4cbd
00000120: 92c4 9bbd a370 d73c 561d 1e3d 7fc7 853c
00000130: 5829 033d 8600 46bc 5a0b ef3c e785 223d
00000140: d817 95bd ae59 f13b 9ad3 b63c 2eed 003d
00000150: ad82 f83c e731 ad3b 4000 b1bd 6558 b6bc
00000160: 1801 9bbc 4e21 92bd 1779 07bd bb67 38bd
00000170: 37f9 3cbd 9a4f 4abc 0317 09bd e439 d23c
00000180: 16e1 0fba ae46 8a3d cd89 0ebd 3acb 6ebc
00000190: db21 033d 5008 d9bc 896d aebd 6f78 a43d
000001a0: 9bf7 62bd 2760 c5bc 4fb1 883c 4c00 a43b
000001b0: 9e49 b53d f41e 6eba ed20 17bd fae1 8f3d
000001c0: fd57 a4bd 67e6 1e3c 34f0 9a3d e4cf dcbc
000001d0: 4c96 553d 95bc 7f3d 6049 76bd d6a8 07bd
000001e0: 8679 e7bc dac0 1f3c dd4d 833d 570b c3bc
000001f0: 1ec0 f9bc bf34 6a3b 1913 aabb f888 5d3d
00000200: c38c 17bd 5fb3 2f3d 34d8 d53b 1426 febc
00000210: 7ed1 90bd 631a a3bd 4714 2abd 6d20 abbd
00000220: 498b 87bd fb8e 1f3d 8e3c 6f3d 4bd8 8dbd
00000230: c20b abbd 3f6e 23bd 5709 a83d c67c 773d
00000240: b5ad 553d 2080 ad3d 50fc 93bd f427 e83c
00000250: 0187 05bc 65ae 4dbd 105a 23bc 540d 15bd
00000260: 8467 b13d 689f 0b3d 6c49 0abd 906e ba3c
00000270: 82d2 843c 04fd 97bd 72fe 8dbd 06a4 2abd
00000280: b50b 92bc a3ac e63c d5a0 343c d06f 7dbd
00000290: e48d 8b3d e88b 63bc 00a7 9d3d 8857 4b3c
000002a0: bc59 7cbd f9c0 d4bb 5473 6b3b 9130 633d
000002b0: d9da b23d 1575 94bd 934f 603d 5f55 c6bc
000002c0: cc46 083d 8d85 99bd b3cf ad3d dda3 eebc
000002d0: bb71 24bd dd2a d1ba 76b7 0fbd 9efc 373d
000002e0: 2025 c13b 0d99 503d 7502 8f3d 4187 b0bd
000002f0: 8cf0 c23b 6410 8c3d 3608 343d f068 29bd
00000300: 18fb ae3d 1e6d 37bd 9cf0 923d 5721 153d
00000310: 9dcb 4c3d 5fbc 7ebd 85ad 99bd 44a3 0c3d
00000320: e345 97bd c4e5 8cbc 30a1 24bd a3ef 803d
00000330: 63ee ef3b 6258 243d 94b2 493d 4424 373d
00000340: 7787 32bd b0c0 983c 0a1e dc3c 6897 b0bd
00000350: 9c66 8abc 6a6c a03d 5d1d 343d 019c 91bb
00000360: f2a9 333c e2c3 e9bc dd12 313c 5399 e73c
00000370: 781e 4dbc 597c 523b 0a5d 843d cfda 08bc
00000380: 6ea2 76bc 29bf ec3c 5274 b1bd c69d 1bbc
00000390: c5cb bdbc 8d26 783d 993c a2bb 1cfd 4d3d
000003a0: ac43 ed3c d800 52bc fb94 b4bd ca1c 1abd
000003b0: 9cfe fb3c 338d 103d 36af 8dbd 41f3 643d
000003c0: 9bfd 893d 61b5 3d3d bf3a 113d 4391 3d3d
000003d0: eba4 9fbc 4b6c 673d 4431 abbd 702f 903d
000003e0: d1f8 0dbd eaab 91bd a891 b73c 5ee6 1c3d
000003f0: a913 3ebd 96af 15bd 96b5 8d3d 7ec2 0abd

linear3.weight f4 [128, 256]
0.0049158446 -0.032823488 -0.036582846 -0.038274888 0.057964917 0.009757924 -0.0056532626 -0.01868016
-0.05852605 -0.029202562 -0.037169088 0.01992013 0.04052159 0.031337027 0.032307606 0.042205706
0.02328939 -0.04952196 0.010387561 0.022050664 -0.04593854 -0.04158883 0.058687333 -0.00027483227
0.0511205 -0.04531243 0.04530377 -0.03213714 -0.04220801 -0.019367432 -0.033777647 -0.03503173
-0.05911672 0.0501576 0.018973943 -0.0053081037 0.052477576 -0.0070937714 0.021683592 0.04324094
-0.023838114 -0.05213113 -0.042073295 -0.008525664 0.043860156 -0.063053325 -0.058077957 0.053192824
-0.03864208 0.016817728 0.054114677 -0.02073373 0.05883019 0.0066078324 -0.02040388 -0.013935766
0.03257608 0.059535053 -0.014815676 -0.0018903017 0.024354398 0.004485451 -0.06311653 -0.045737214
0.029754484 0.015148617 -0.048153818 0.00790496 -0.01292581 -0.038853135 0.0075415163 0.055501442
-0.03583801 0.012306248 0.017744873 0.03795778 0.057892095 0.028616903 -0.014870592 0.051762033
-0.035290983 -0.059345227 -0.012417838 0.056097362 -0.034785144 0.057482902 -0.047866367 -0.0479494
0.015138027 -0.010596854 -0.047949307 0.0029479684 -0.039985396 -0.015792036 -0.029846244 0.030802092
0.05666556 0.014738634 0.009601611 -0.018200321 0.03696286 -0.019096259 0.02195905 0.0022443403
-0.050366536 0.039216843 0.024317954 -0.013668564 -0.009292948 -0.05978231 -0.009055822 -0.047132526
-0.026224941 -0.018664325 0.015762532 0.03987835 -0.0035023494 -0.047687 -0.035500944 -0.041411802
0.002555107 -0.056066066 0.049080856 0.020250468 0.042325627 -0.011950691 -0.011341699 -0.05953726
0.03805726 0.010621159 0.05900645 0.028226867 0.026529694 -0.0341559 0.042003617 -0.026428647
-0.033288077 -0.024987277 -0.030435428 0.038777515 0.01573884 -0.046780095 -0.058527377 0.036365636
-0.008106804 -0.042368297 0.034802668 0.013403058 -0.0066394163 0.049486086 0.046775527 -0.039112195
-0.05703833 -0.059007343 -0.007989194 0.061545376 -0.041217275 0.021189418 0.008144424 9.31319e-05
-0.0011314357 -0.007257777 -0.00200626 0.06008633 0.011386475 -0.04137955 0.015934674 0.03303486
-0.0051343935 -0.024867404 -0.017294182 0.036334172 -0.04254891 0.019847024 0.04429952 0.04865226
-0.010194501 -0.051651582 -0.007063746 -0.051055375 0.06079531 0.0011411274 0.057511125 -0.013084825
0.042384095 -0.04169358 0.022590123 0.0039044772 0.020505391 -0.018040221 0.05335997 -0.026004856
0.029363798 -0.05559411 0.03701492 0.03304887 0.018397642 -0.05958162 -0.022619702 -0.045978565
-0.03202501 -0.05303655 -0.03165663 -0.025071785 -0.054335855 0.008466345 -0.04194363 -0.06134308
0.021738213 -0.019501027 0.030159097 0.05941209 0.037689958 0.05786731 -0.05472678 0.04852225
0.044388965 -0.011300788 -0.020467082 -0.006851424 0.030933557 -0.020911265 -0.053800683 -0.014098623
0.027202964 0.05279157 0.015417547 -0.063017696 0.0024138254 0.034242615 0.005060436 -0.051006455
0.029229622 0.025903009 0.045256607 0.025621671 0.024845509 -0.023332408 -0.0117766615 0.021100005
0.030024538 -0.009239871 -0.0511267 0.034513444 -0.011355153 -0.043868754 0.04415088 -0.063770406
0.012790472 -0.049794253 -0.063735455 0.019876033 0.052582715 -0.01021473 -0.023040755 0.017058687
00000000: 1815 a13b ec71 06bd e5d7 15bd 21c6 1cbd
00000010: 9f6c 6d3d b3df 1f3c 013f b9bb 2307 99bc
00000020: 03b9 6fbd 363a efbc 9d3e 18bd 8a2f a33c
00000030: f7f9 253d 415b 003d fb54 043d e4df 2c3d
00000040: 64c9 be3c 8ad7 4abd 9730 2a3c 98a3 b43c
00000050: 0d2a 3cbd 0d59 2abd 2162 703d 5d17 90b9
00000060: bb63 513d 8799 39bd 7290 393d 3ca2 03bd
00000070: 4ee2 2cbd 73a8 9ebc 6e5a 0abd 6e7d 0fbd
00000080: 6024 72bd 0e72 4d3d 3e6f 9b3c 9aef adbb
00000090: baf2 563d de72 e8bb caa1 b13c 691d 313d
000000a0: 2648 c3bc 7487 55bd 0c55 2cbd 3aaf 0bbc
000000b0: b5a6 333d 1a22 81bd 27e3 6dbd b8e0 593d
000000c0: 2847 1ebd 55c5 893c 5aa7 5d3d c9d9 a9bc
000000d0: edf7 703d 8486 d83b 0a26 a7bc d752 64bc
000000e0: 7f6e 053d 07db 733d 73bd 72bc 00c4 f7ba
000000f0: e082 c73c b1fa 923b 3d43 81bd f256 3bbd
00000100: adbf f33c e831 783c f03c 45bd ce83 013c
00000110: c7c6 53bc 7724 1fbd d31e f73b 7b55 633d
00000120: e1ca 12bd 25a0 493c b25d 913c 9e79 1b3d
00000130: 4320 6d3d ff6d ea3c c9a3 73bc 6d04 543d
00000140: 478d 10bd fb13 73bd 3074 4bbc 59c6 653d
00000150: de7a 0ebd 3173 6b3d 860f 44bd 9766 44bd
00000160: 7d05 783c 6d9e 2dbc 7e66 44bd b432 413b
00000170: bac7 23bd 4d5e 81bc 1c80 f4bc ab54 fc3c
00000180: 251a 683d 507a 713c 1350 1d3c d718 95bc
00000190: 5e66 173d c26f 9cbc 77e3 b33c c815 133b
000001a0: 244d 4ebd d7a1 203d 7236 c73c 1df2 5fbc
000001b0: 7341 18bc 4cde 74bd df5e 14bc 090e 41bd
000001c0: b0d5 d6bc ede5 98bc 6d20 813c 7b57 233d
000001d0: ac87 65bb 7253 43bd 7069 11bd 6c9f 29bd
000001e0: 9573 273b 88a5 65bd 0209 493d 4fe4 a53c
000001f0: a35d 2d3d d5cc 43bc 89d2 39bc 58dd 73bd
00000200: eee1 1b3d 5f04 2e3c bfb0 713d 083c e73c
00000210: cd54 d93c 0fe7 0bbd fc0b 2c3d e480 d8bc
00000220: 1459 08bd 1eb2 ccbc b853 f9bc 2cd5 1e3d
00000230: bdee 803c 7c9c 3fbd 67ba 6fbd 22f4 143d
00000240: 67d2 04bc 618a 2dbd 3e8d 0e3d 8098 5b3c
00000250: 768f d9bb ecb1 4a3d b297 3f3d 1c34 20bd
00000260: 06a1 69bd afb1 71bd 1ce5 02bc 0117 7c3d
00000270: 72d3 28bd 6e95 ad3c 3170 053c cf4f c338
00000280: af4c 94ba a5d2 edbb 757b 03bb 151d 763d
00000290: 568e 3a3c 9a7d 29bd 6f89 823c 904f 073d
000002a0: 6a3e a8bb bab6 cbbc 87ac 8dbc 24d3 143d
000002b0: c447 2ebd 3a96 a23c 6a73 353d 9847 473d
000002c0: d606 27bc 9c90 53bd ff76 e7bb 711f 51bd
000002d0: 8104 793d e291 953a c990 6b3d bc61 56bc
000002e0: f29a 2d3d e3c6 2abd ec0e b93c 42e2 7f3b
000002f0: ecfa a73c 16c9 93bc fc8f 5a3d 2308 d5bc
00000300: 598c f03c a6b6 63bd f59c 173d 405e 073d
00000310: a7b6 963c db0b 74bd f44c b9bc 0554 3cbd
00000320: a82c 03bd da3c 59bd 62aa 01bd 5863 cdbc
00000330: 468f 5ebd 6db6 0a3c 15cd 2bbd e242 7bbd
00000340: 5614 b23c 9ec0 9fbc 3610 f73c 175a 733d
00000350: c960 1a3d 4606 6d3d 3029 60bd 44bf 463d
00000360: 34d1 353d f126 39bc 95aa a7bc e981 e0bb
00000370: 5f68 fd3c 1a4e abbc 1b5e 5cbd e9fd 66bc
00000380: c0d8 de3c f93b 583d e199 7c3c 6c0f 81bd
00000390: 4531 1e3b fc41 0c3d 04d2 a53b 25ec 50bd
000003a0: f672 ef3c 8c32 d43c fe5e 393d 8ae4 d13c
000003b0: cf88 cb3c 9b23 bfbc e6f2 40bc ebd9 ac3c
000003c0: 05f6 f53c d462 17bc 3b6a 51bd f85d 0d3d
000003d0: f70a 3abc b9af 33bd 8ed7 343d 0f9a 82bd
000003e0: 218f 513c 0ff5 4bbd bc87 82bd 10d3 a23c
000003f0: f960 573d af5b 27bc f7bf bcbc a9be 8b3c

linear3.bias f4 [128]
0.04306941 0.008564368 0.040220033 0.0013793717 0.059418235 0.0484487 0.030430447 -0.05270473
-0.05852226 0.0025876244 -0.04630594 -0.019428411 0.050619226 0.009765446 0.024009759 -0.054625373
0.0514876 0.041420616 0.039827935 -0.023490146 -0.045762587 0.0014207964 0.04327756 0.0484128
0.05559344 -0.02595886 0.009640574 0.032524206 0.03921316 -0.021771312 -0.057960592 -0.005028898
0.041197926 0.055132166 -0.03837517 0.00565077 0.02521524 0.05029624 0.027927665 0.043193422
-0.019636715 -0.03959489 0.032774825 -0.0632159 0.04519341 0.030573845 -0.036671735 -0.0383176
-0.011403365 -0.017542524 0.04560023 0.0137438625 0.003222597 0.06565205 -0.03925209 0.028073696
-0.035838097 0.020092482 0.022388916 -0.06126822 -0.011402124 0.0026757391 -0.0030240386 0.036311693
-0.029504746 0.016376922 -0.008919649 -0.04910293 0.03676269 0.015432218 -0.010936437 -0.053910915
0.018030036 0.027735548 -0.0012978308 -0.03439259 -0.0013648772 -0.05372329 -0.013485847 -0.004284665
0.014049893 -0.00013647933 0.03952903 -0.03220118 0.028121157 0.020373816 -0.013159528 0.012413752
-0.0011249791 -3.4986995e-05 0.030520482 -0.0021556506 0.030966008 -0.008461691 -0.022204304 -0.004820588
-0.008808843 0.03663327 0.013427049 0.028040895 -0.056300912 0.02571747 0.041582145 0.04966122
-0.011867346 -0.0024493705 0.039610997 0.027543342 0.05994131 -0.011970116 -0.004803813 0.060839623
-0.039071012 -0.045696773 -0.0497716 -0.03405617 -0.040608086 -0.032364618 -0.042436693 0.044089444
-0.021602146 0.026833476 0.027770676 -0.012615557 0.0075977254 0.02248986 0.01822782 0.016745226
00000000: 8d69 303d 9051 0c3c c3bd 243d 09cc b43a
00000010: 8960 733d 2572 463d 4649 f93c eae0 57bd
00000020: 0ab5 6fbd 2295 293b 4cab 3dbd 5528 9fbc
00000030: 1b56 4f3d 40ff 1f3c 1db0 c43c dbbe 5fbd
00000040: a9e4 523d aaa8 293d 9e22 233d 686e c0bc
00000050: 8d71 3bbd 043a ba3a d043 313d 804c 463d
00000060: f2b5 633d ada7 d4bc 80f3 1d3c 1a38 053d
00000070: fa9d 203d c059 b2bc 1668 6dbd 74c9 a4bb
00000080: 28bf 283d 44d2 613d 482f 1dbd 182a b93b
00000090: 3190 ce3c 6e03 4e3d 8fc8 e43c 96eb 303d
000000a0: 2ddd a0bc 402e 22bd e53e 063d 5677 81bd
000000b0: ba1c 393d 0076 fa3c 1a35 16bd eaf2 1cbd
000000c0: 2ed5 3abc 57b5 8fbc 4fc7 3a3d f02d 613c
000000d0: 3532 533b 9574 863d cdc6 20bd cffa e53c
000000e0: f8ca 12bd fd98 a43c f668 b73c 63f4 7abd
000000f0: f9cf 3abc 745b 2f3b f32e 46bb 92bb 143d
00000100: f0b3 f1bc e528 863c b823 12bc 2720 49bd
00000110: 7994 163d 6ad7 7c3c be2e 33bc b1d1 5cbd
00000120: bab3 933c a935 e33c fa1b aaba 3fdf 0cbd
00000130: aee5 b2ba f40c 5cbd bef3 5cbc 6066 8cbb
00000140: 8631 663c e41b 0fb9 31e9 213d 62e5 03bd
00000150: 575e e63c fde6 a63c 109b 57bc 0d63 4b3c
00000160: 0974 93ba 00bf 12b8 1706 fa3c d145 0dbb
00000170: 6dac fd3c e8a2 0abc cde5 b5bc 06f6 9dbb
00000180: f752 10bc c50c 163d 20fd 5b3c 05b6 e53c
00000190: c99b 66bd 72ad d23c 0a52 2a3d 9069 4b3d
000001a0: 426f 42bc 9e85 20bb 243f 223d 93a2 e13c
000001b0: 0585 753d 4e1e 44bc 4e69 9dbb f832 793d
000001c0: ed08 20bd 8a2c 3bbd 4edd 4bbd 7c7e 0bbd
000001d0: aa54 26bd c390 04bd 19d2 2dbd 2297 343d
000001e0: fcf6 b0bc e1d1 db3c 547f e33c 7bb1 4ebc
000001f0: 57f6 f83b a83c b83c 8252 953c 492d 893c

out.weight f4 [3, 128]
-0.049274083 0.058223754 -0.013826638 -0.03672722 0.016689857 -0.016137255 0.01754852 0.08307064
0.03519986 -0.07032838 -0.07791996 0.077714816 0.07849887 -0.0073716734 -0.020577608 0.035239752
-0.085288 -0.083495 0.02286835 -0.067168295 -0.04058551 -0.038166087 0.020973366 0.07070588
-0.003772612 -0.013871447 0.08284018 -0.00437019 0.0084430305 -0.023488974 -0.08437077 -0.029501628
0.01031335 0.01981915 -0.029333439 -0.07695522 -0.021665324 -0.04006858 0.030888395 -0.025614467
0.07342949 -0.027114818 0.007486872 -0.052595362 -0.003330145 0.03333501 0.051772498 -0.045316152
0.042706404 0.01186792 0.087358855 0.08545566 -0.000373116 -0.033079606 -0.038028978 -0.07217996
0.06466996 -0.016300844 -0.053610045 0.0609003 0.082379706 0.05642065 0.07473133 -0.008753332
0.023314886 0.0030833993 0.062922746 0.0127734095 0.071174964 -0.01726738 -0.055737123 -0.04626729
0.041640703 0.05097028 -0.070499554 -0.056038737 -0.0325301 0.029047161 -0.06802738 -0.0053076297
-0.040271472 -0.07593335 0.052705936 -0.028853137 0.06486192 -0.07583297 -0.02095098 0.052228983
-0.034760322 0.057255637 0.0849607 0.039981455 -0.048816342 -0.0827486 -0.0051896344 -0.011384289
-0.015788244 -0.08229239 -0.03784672 -0.032095134 -0.057454478 0.06479116 -0.079676114 0.058420114
-0.047747277 0.003994729 0.0011116529 0.077990554 0.072963156 0.0052969586 -0.05940111 0.07933254
-0.020160286 0.02237141 -0.0037536498 -0.050466973 0.04303092 0.04875032 -0.05993108 0.07510785
-0.036225323 0.0040255915 0.036397662 -0.007113596 -0.009650375 -0.04380803 -0.0109564 -0.016904458
0.012573525 -0.030619405 -0.0055228933 -0.024522647 -0.062347006 0.028434353 -0.07693641 -0.02569057
-0.051087912 0.07183708 -0.054947443 -0.008648749 -0.08581894 0.008251762 0.072061755 -0.0871283
0.048216254 -0.082989186 0.03406184 -0.084456906 0.055954132 0.07030326 -0.055952467 0.07901786
0.037851702 -0.03401142 -0.012801334 -0.04513221 -0.061737787 0.04578132 -0.020893864 -0.0011004385
0.045627818 0.032072674 -0.0513156 -0.073149905 0.0262115 -0.060438514 -0.07770591 0.02214811
0.017768485 0.029424883 0.025042685 -0.0006006162 -0.07576698 0.037587535 -0.073501006 0.020944864
0.027958313 0.039429568 0.041698094 0.046726197 0.06700922 -0.03762082 -0.06520826 -0.022130115
-0.005521777 -0.04131885 0.049478915 0.050878778 -0.02043234 -0.04392387 0.026927963 0.076089844
0.057048373 0.050801475 0.040784284 0.08319933 0.042778052 -0.012492811 0.05252199 -0.046042755
-0.06591229 -0.019182803 0.05626761 -0.033582747 -0.037499424 -0.035102636 -0.04244488 -0.03576354
0.048258282 -0.059381958 0.07605815 -0.0010245726 0.04851209 -0.03681944 0.039144598 0.031622086
0.04035226 0.007581949 -0.038731158 0.08420448 -0.0051454436 -0.005982779 -0.008466645 -0.08822059
0.071299545 0.006329624 0.045009322 -0.022109011 -0.05631413 0.035911333 0.056142442 -0.03979656
0.08452476 0.041620843 0.06429784 -0.058997862 -0.086385034 0.025567446 0.08094543 0.043335047
-0.0411651 -0.040757917 0.03222101 0.02009587 0.084816135 0.047281355 -0.042090192 -0.013354546
0.02309902 0.056966987 -0.06508575 -0.044516798 0.016154265 -0.03454152 0.026353084 -0.09103264
00000000: 9fd3 49bd 087c 6e3d 2089 62bc 486f 16bd
00000010: 2bb9 883c 4732 84bc eac1 8f3c f120 aa3d
00000020: ba2d 103d 5308 90bd 8094 9fbd f228 9f3d
00000030: 04c4 a03d 148e f1bb 5f92 a8bc 8f57 103d
00000040: 7aab aebd 6dff aabd 6856 bb3c 888f 89bd
00000050: fe3c 26bd 0b54 1cbd 56d0 ab3c 3fce 903d
00000060: ed3d 77bb 1145 63bc 1da8 a93d d033 8fbb
00000070: a354 0a3c f36b c0bc 95ca acbd 66ad f1bc
00000080: 53f9 283c c55b a23c ae4c f0bc b39a 9dbd
00000090: 7a7b b1bc f41e 24bd a909 fd3c 6ed5 d1bc
000000a0: 3362 963d e51f debc 6f54 f53b 3c6e 57bd
000000b0: 903e 5abb 4b8a 083d 660f 543d 6e9d 39bd
000000c0: e9ec 2e3d aa71 423c 33e9 b23d 6103 af3d
000000d0: c89e c3b9 7b7e 07bd 46c4 1bbd 16d3 93bd
000000e0: af71 843d 5989 85bc 3596 5bbd 9872 793d
000000f0: b1b6 a83d 5719 673d bd0c 993d 236a 0fbc
00000100: dcfe be3c db12 4a3b a4dd 803d 9047 513c
00000110: 2ec4 913d 5274 8dbc 9c4c 64bd c582 3dbd
00000120: 718f 2a3d 36c6 503d 1262 90bd e088 65bd
00000130: 483e 05bd 50f4 ed3c f051 8bbd a0eb adbb
00000140: b3f3 24bd f282 9bbd 2ee2 573d 6a5d ecbc
00000150: 54d6 843d 514e 9bbd 64a1 abbc 0fee 553d
00000160: d760 0ebd e384 6a3d e0ff ad3d 98c3 233d
00000170: a5f3 47bd 1978 a9bd cf0d aabb 2b85 3abc
00000180: 5956 81bc ea88 a8bd 2a05 1bbd 3076 03bd
00000190: 6355 6bbd 3ab1 843d 3b2d a3bd ee49 6f3d
000001a0: a692 43bd 37e6 823b e2b4 913a 83b9 9f3d
000001b0: b56d 953d 1c92 ad3b 944e 73bd 1979 a23d
000001c0: 2f27 a5bc 3f44 b73c cbff 75bb 75b6 4ebd
000001d0: 3141 303d 6aae 473d 4b7a 75bd 25d2 993d
000001e0: 0161 14bd 1ce9 833b b715 153d 2b19 e9bb
000001f0: 9b1c 1ebc 0d70 33bd 7982 33bc 387b 8abc
00000200: 3001 4e3c 8cd5 fabc 63f9 b4bb b8e3 c8bc
00000210: 935f 7fbd 29ef e83c d690 9dbd 0875 d2bc
00000220: 8f41 51bd 521f 933d 9210 61bd 7cb3 0dbc
00000230: d7c1 afbd 6632 073c 1d95 933d 5270 b2bd
00000240: 687e 453d 3cf6 a9bd 6e84 0b3d bef7 acbd
00000250: 2930 653d 28fb 8f3d 6a2e 65bd 1ed4 a13d
00000260: 630a 1b3d 8f4f 0bbd b0bc 51bc 8ddc 38bd
00000270: c3e0 7cbd 3285 3b3d 9c29 abbc 973c 90ba
00000280: 3ce4 3a3d a35e 033d 4e30 52bd 9ecf 95bd
00000290: 80b9 d63c 608e 77bd 4724 9fbd f46f b53c
000002a0: 378f 913c 740c f13c 5126 cd3c ac72 1dba
000002b0: b82b 9bbd 63f5 193d b287 96bd 9094 ab3c
000002c0: d508 e53c e680 213d 9fcb 2a3d f863 3f3d
000002d0: 213c 893d 4a18 1abd e98b 85bd 374a b5bc
000002e0: 06f0 b4bb f43d 29bd 67aa 4a3d 4466 503d
000002f0: b961 a7bc 84e9 33bd 0898 dc3c fed4 9b3d
00000300: 8eab 693d 3515 503d 6c0d 273d 6964 aa3d
00000310: 0a38 2f3d a6ae 4cbc 4c21 573d 5497 3cbd
00000320: 06fd 86bd 4125 9dbc de78 663d 108e 09bd
00000330: ff98 19bd c8c7 0fbd afda 2dbd ca7c 12bd
00000340: 7aaa 453d 7f3a 73bd 60c4 9b3d f44a 86ba
00000350: 9db4 463d fbcf 16bd 1656 203d 2986 013d
00000360: 6948 253d ff71 f83b 90a4 1ebd 6673 ac3d
00000370: 1c9b a8bb 300b c4bb afb7 0abc ffac b4bd
00000380: 7f05 923d bc68 cf3b b25b 383d f51d b5bc
00000390: a5a9 66bd c317 133d 9ef5 653d b801 23bd
000003a0: 511b ad3d 9e7a 2a3d 96ae 833d bea7 71bd
000003b0: a3ea b0bd d272 d13c b8c6 a53d 1780 313d
000003c0: bc9c 28bd c6f1 26bd 2efa 033d 18a0 a43c
000003d0: 15b4 ad3d 18aa 413d c466 2cbd 07cd 5abc
000003e0: 283a bd3c 3756 693d ad4b 85bd 3f57 36bd
000003f0: f355 843c 697b 0dbd 6ce2 d73c 526f babd

out.bias f4 [3]
-0.044102013 0.06216321 0.05229361
00000000: 50a4 34bd da9e 7e3d d331 563d
